…
model.add(Dense(1000, activation='relu'))
model.add(BatchNormalization())
model.add(Dropout(0.5))

model.add(Dense(512, activation='relu'))
model.add(BatchNormalization())
model.add(Dropout(0.5))

model.add(Dense(10, activation='softmax'))

model.compile(loss='categorical_crossentropy',
              optimizer=Adam(),
              metrics=['accuracy'])
```


```
Model: "sequential"
_________________________________________________________________
 Layer (type)                Output Shape              Param #
=================================================================
 conv2d (Conv2D)             (50000, 30, 30, 16)       448

 batch_normalization (BatchN  (50000, 30, 30, 16)      64
 ormalization)

 dropout (Dropout)           (50000, 30, 30, 16)       0

 conv2d_1 (Conv2D)           (50000, 28, 28, 32)       4640

 batch_normalization_1 (Batc  (50000, 28, 28, 32)      128
 hNormalization)

 dropout_1 (Dropout)         (50000, 28, 28, 32)       0

 flatten (Flatten)           (50000, 25088)            0

 dense (Dense)               (50000, 1000)             25089000

 batch_normalization_2 (Batc  (50000, 1000)            4000
 hNormalization)

 dropout_2 (Dropout)         (50000, 1000)             0

 dense_1 (Dense)             (50000, 512)              512512

 batch_normalization_3 (Batc  (50000, 512)             2048
 hNormalization)

 dropout_3 (Dropout)         (50000, 512)              0

 dense_2 (Dense)             (50000, 10)               5130

=================================================================
Total params: 25,617,970
Trainable params: 25,614,850
Non-trainable params: 3,120
_________________________________________________________________
None
```
</details>

<br />

<details>
  <summary>Axon model summary</summary>

```
+-----------------------------------------------------------------------------------------------------------------------------------------+
…
